******************* RUN:  0  *******************
*** conceptid  0  ***
GT Final
# ---------------------- Define Model ---------------------- #
Model: "functional"
┏━━━━━━━━━━━━━━━━━━━━━━━━━━━━━━━━━┳━━━━━━━━━━━━━━━━━━━━━━━━┳━━━━━━━━━━━━━━━┓
┃ Layer (type)                    ┃ Output Shape           ┃       Param # ┃
┡━━━━━━━━━━━━━━━━━━━━━━━━━━━━━━━━━╇━━━━━━━━━━━━━━━━━━━━━━━━╇━━━━━━━━━━━━━━━┩
│ input0 (InputLayer)             │ (None, 36, 36, 3)      │             0 │
├─────────────────────────────────┼────────────────────────┼───────────────┤
│ max_pooling2d (MaxPooling2D)    │ (None, 18, 18, 3)      │             0 │
├─────────────────────────────────┼────────────────────────┼───────────────┤
│ conv0 (Conv2D)                  │ (None, 6, 6, 36)       │         1,008 │
├─────────────────────────────────┼────────────────────────┼───────────────┤
│ re_lu (ReLU)                    │ (None, 6, 6, 36)       │             0 │
├─────────────────────────────────┼────────────────────────┼───────────────┤
│ conv1 (Conv2D)                  │ (None, 3, 3, 8)        │         1,160 │
├─────────────────────────────────┼────────────────────────┼───────────────┤
│ re_lu_1 (ReLU)                  │ (None, 3, 3, 8)        │             0 │
├─────────────────────────────────┼────────────────────────┼───────────────┤
│ conv2 (Conv2D)                  │ (None, 3, 3, 16)       │           144 │
├─────────────────────────────────┼────────────────────────┼───────────────┤
│ re_lu_2 (ReLU)                  │ (None, 3, 3, 16)       │             0 │
├─────────────────────────────────┼────────────────────────┼───────────────┤
│ conv3 (Conv2D)                  │ (None, 3, 3, 5)        │            85 │
├─────────────────────────────────┼────────────────────────┼───────────────┤
│ re_lu_3 (ReLU)                  │ (None, 3, 3, 5)        │             0 │
├─────────────────────────────────┼────────────────────────┼───────────────┤
│ flatten (Flatten)               │ (None, 45)             │             0 │
├─────────────────────────────────┼────────────────────────┼───────────────┤
│ dense0 (Dense)                  │ (None, 30)             │         1,380 │
├─────────────────────────────────┼────────────────────────┼───────────────┤
│ re_lu_4 (ReLU)                  │ (None, 30)             │             0 │
├─────────────────────────────────┼────────────────────────┼───────────────┤
│ dense1 (Dense)                  │ (None, 60)             │         1,860 │
├─────────────────────────────────┼────────────────────────┼───────────────┤
│ re_lu_5 (ReLU)                  │ (None, 60)             │             0 │
├─────────────────────────────────┼────────────────────────┼───────────────┤
│ dense2 (Dense)                  │ (None, 5)              │           305 │
├─────────────────────────────────┼────────────────────────┼───────────────┤
│ re_lu_6 (ReLU)                  │ (None, 5)              │             0 │
└─────────────────────────────────┴────────────────────────┴───────────────┘
 Total params: 5,942 (23.21 KB)
 Trainable params: 5,942 (23.21 KB)
 Non-trainable params: 0 (0.00 B)
# ---------------------- Set weights of model ---------------------- #
2/2 ━━━━━━━━━━━━━━━━━━━━ 3s 509ms/step - acc: 1.0000 - loss: 1.1921e-07
ERROR! Loss != 0
***  GradCAM  ***
2D explanations
Deletion
Insertion
MuFidelity
…
