******************* RUN:  0 ) *******************
*** conceptid  0  ***
GT Final
Model: "functional_17"
┏━━━━━━━━━━━━━━━━━━━━━━━━━━━━━━━━━┳━━━━━━━━━━━━━━━━━━━━━━━━┳━━━━━━━━━━━━━━━┓
┃ Layer (type)                    ┃ Output Shape           ┃       Param # ┃
┡━━━━━━━━━━━━━━━━━━━━━━━━━━━━━━━━━╇━━━━━━━━━━━━━━━━━━━━━━━━╇━━━━━━━━━━━━━━━┩
│ input_layer_15 (InputLayer)     │ (None, 18, 18, 3)      │             0 │
├─────────────────────────────────┼────────────────────────┼───────────────┤
│ embedding (Conv2D)              │ (None, 3, 3, 432)      │        46,656 │
├─────────────────────────────────┼────────────────────────┼───────────────┤
│ reshape (Reshape)               │ (None, 9, 432)         │             0 │
├─────────────────────────────────┼────────────────────────┼───────────────┤
│ transformer_encoder_cp_5        │ (None, 9, 432)         │       933,552 │
│ (TransformerEncoder_cp)         │                        │               │
├─────────────────────────────────┼────────────────────────┼───────────────┤
│ transformer_encoder_concepts_5  │ (None, 9, 432)         │       757,448 │
│ (TransformerEncoder_concepts)   │                        │               │
├─────────────────────────────────┼────────────────────────┼───────────────┤
│ flatten_5 (Flatten)             │ (None, 3888)           │             0 │
├─────────────────────────────────┼────────────────────────┼───────────────┤
│ dense0 (Dense)                  │ (None, 30)             │       116,670 │
├─────────────────────────────────┼────────────────────────┼───────────────┤
│ re_lu_39 (ReLU)                 │ (None, 30)             │             0 │
├─────────────────────────────────┼────────────────────────┼───────────────┤
│ dense1 (Dense)                  │ (None, 60)             │         1,860 │
├─────────────────────────────────┼────────────────────────┼───────────────┤
│ re_lu_40 (ReLU)                 │ (None, 60)             │             0 │
├─────────────────────────────────┼────────────────────────┼───────────────┤
│ dense2 (Dense)                  │ (None, 5)              │           305 │
├─────────────────────────────────┼────────────────────────┼───────────────┤
│ re_lu_41 (ReLU)                 │ (None, 5)              │             0 │
└─────────────────────────────────┴────────────────────────┴───────────────┘
 Total params: 1,856,491 (7.08 MB)
 Trainable params: 1,856,491 (7.08 MB)
 Non-trainable params: 0 (0.00 B)
2/2 ━━━━━━━━━━━━━━━━━━━━ 26s 13s/step - categorical_accuracy: 1.0000 - loss: 1.0199e-07
***  GradCAM  ***
determine (48, 18, 18)
2D explanations
Deletion
Insertion
MuFidelity
CosSim
SSIM
CONCISSENESS
F1
MAE
IoU
Precision
…
